bottleneck.pth (torch, 277949 bytes, 2 tensors)

weight f4 [134, 512, 1, 1]
0.007236447 -0.021414934 -0.0030747217 -0.010128512 0.010431162 0.021859748 0.005707276 -0.018651059
0.10946186 -0.014648171 -0.015293217 -0.025482537 0.013855552 -0.01452907 -0.007527445 -0.01992545
-0.01673932 -0.017567692 0.049129613 -0.03231014 0.051661585 0.028645834 -0.005800113 -0.030853951
-0.021163378 0.018655177 -0.021047512 0.062481392 0.0038187972 -0.012908549 0.03277399 0.012140139
-0.0035848953 -0.00026200604 -0.023212941 0.017908607 0.053066183 -0.035406414 -0.05469083 -0.026533436
0.0037749326 -0.01605519 0.009965072 0.0139713595 0.039191145 0.032447185 -0.011942872 -0.02773349
0.017832374 -0.03241028 0.009537384 -0.022356668 -0.063927 0.06453707 -0.0013722423 -0.025220454
-0.016246403 -0.03512549 0.008696809 -0.027648643 0.005883186 0.015775269 0.009393702 0.009211091
0.023410926 0.018315438 -0.06665081 0.03972695 0.0024875957 -0.029348858 0.012549286 -0.014402954
-0.014117673 -0.0021721656 -0.007390637 -0.004623592 -0.027114732 -0.042805154 -0.031009357 -0.025621114
-0.005802269 0.006911562 -0.009839916 -0.031812765 -0.025264157 0.0052332017 0.015762553 0.035845753
-0.045404032 0.004862512 -0.014641024 0.03550173 -0.03310171 -0.007315165 -0.028893374 0.031718466
0.012973961 -0.06425157 0.0036162338 0.0033859143 -0.019900816 -0.067846194 -0.0055645513 0.033922356
0.047199726 -0.020432606 0.009098161 -0.012522896 0.008179615 0.039809916 -0.02363307 -0.05150905
-0.033250913 0.03820928 0.017874626 0.0292342 -0.0012559484 -0.040598042 0.0017313829 -0.0040485826
-0.01889142 0.03623431 0.022821225 -0.04809921 -0.029555473 -0.01637601 -0.034041945 -0.0055086957
-0.0338815 0.008861743 0.03762538 0.012035819 -0.031431608 -0.007329167 0.007358531 -0.022467116
0.00037715264 0.0115905125 -0.00637338 -0.009419881 0.022905393 0.021519903 -0.049451783 -0.01084812
-0.0076132435 0.024458595 0.047324665 -0.06745989 -0.0016992069 0.066167355 -0.0020212908 -0.013400957
-0.020701783 -0.013525577 0.013521763 -0.0015743868 -0.011890112 -0.014471274 -0.025303364 -0.006385392
-0.0093654385 -0.00032858545 -0.027895743 0.0004997975 0.0051169028 -0.038794927 -0.014801624 0.011829712
0.013336422 -0.0140914675 -0.016180225 0.023617294 0.010912936 0.002000596 -0.008544569 0.033926185
0.02501528 0.014363346 -0.011676955 -0.004445214 0.009510657 0.028529866 0.018627778 -0.043063793
-0.048123296 -0.055739295 -0.022891207 0.008456463 -0.0048929895 0.034938537 -0.0109522585 -0.000107060325
-0.03887379 -0.017757565 -0.030556744 -0.0054142987 -0.05531914 -0.044693712 -0.07182484 -0.040685896
0.024387086 0.015973339 0.103741616 0.012538097 -0.018969014 -0.019565385 0.003294153 -0.013971099
-0.0032122196 0.07878468 -0.025163155 -0.016023254 0.009170353 0.06545918 -0.017708149 -0.03219308
0.012790974 -0.012485988 0.020761782 0.025079342 0.015303763 0.045454364 -0.011344637 0.011037217
-0.017454641 -0.00025891984 0.0027054385 0.0010735239 0.050736744 -0.005843748 -0.014416548 -0.0041027996
-0.042082027 -0.01009131 0.004687555 0.046348043 -0.014435919 0.015316435 -0.022937136 0.0032117304
-0.019695248 -0.018405113 0.018004654 -0.0010642139 0.0008528031 0.028495997 -0.04245696 -0.017761283
-0.032343592 -0.0656966 0.067960516 -0.014124542 -0.051579732 -0.0035757439 -0.0038146803 -0.05056602
00000000: b81f ed3b 5f6e afbc 4581 49bb 0ff2 25bc
00000010: 77e7 2a3c 3713 b33c 1a04 bb3b 1bca 98bc
00000020: 8a2d e03d e2fe 6fbc 6790 7abc c1c0 d0bc
00000030: 6602 633c 560b 6ebc c9a8 f6bb b33a a3bc
00000040: e620 89bc 1fea 8fbc 223c 493d a357 04bd
00000050: 199b 533d abaa ea3c e00e bebb 6dc1 fcbc
00000060: d25e adbc bed2 983c d56b acbc 7dec 7f3d
00000070: c944 7a3b 617e 53bc 053e 063d 6fe7 463c
00000080: 90f0 6abb db5d 89b9 1129 bebc 12b5 923c
00000090: ed5b 593d 5106 11bd 7e03 60bd a65c d9bc
000000a0: dc64 773b 2c86 83bc 8b44 233c 21e8 643c
000000b0: e586 203d 57e7 043d 09ac 43bc 5831 e3bc
000000c0: 3315 923c a4c0 04bd b042 1c3c 5525 b7bc
000000d0: 29ec 82bd 032c 843d d0dc b3ba 209b cebc
000000e0: 2d17 85bc bfdf 0fbd 107d 0e3c 687f e2bc
000000f0: bec7 c03b 233b 813c 0be8 193c 1eea 163c
00000100: 45c8 bf3c 420a 963c 3880 88bd bab8 223d
00000110: ee06 233b 046d f0bc 859b 4d3c 5efa 6bbc
00000120: d04d 67bc e45a 0ebb 282d f2bb 8081 97bb
00000130: b71f debc 7554 2fbd 5607 febc 5fe3 d1bc
00000140: f620 bebb 627a e23b 9937 21bc 1a4e 02bd
00000150: c7f6 cebc 477b ab3b 7820 813c ffd2 123d
00000160: 94f9 39bd b555 9f3b e8e0 6fbc 436a 113d
00000170: a995 07bd 0db4 efbb ccb1 ecbc 39eb 013d
00000180: bd90 543c 5496 83bd 56fe 6c3b 37e6 5d3b
00000190: 0907 a3bc f2f2 8abd d756 b6bb 2bf2 0a3d
000001a0: 8054 413d 4862 a7bc 7410 153c d52c 4dbc
000001b0: cb03 063c b90f 233d 249a c1bc 27fb 52bd
000001c0: 1c32 08bd 5681 1c3d cf6d 923c 907c ef3c
000001d0: a39e a4ba 224a 26bd 92ef e23a f9a9 84bb
000001e0: 2ec2 9abc 6e6a 143d 94f3 ba3c ad03 45bd
000001f0: 521e f2bc fb26 86bc 916f 0bbd 4a82 b4bb
00000200: 54c7 0abd d830 113c 121d 1a3d e231 453c
00000210: 6ebe 00bd 8229 f0bb d51f f13b f50c b8bc
00000220: 92bc c539 22e6 3d3c c9d7 d0bb d855 1abc
00000230: 17a4 bb3c 824a b03c f48d 4abd 50bc 31bc
00000240: 8478 f9bb 645d c83c 82d7 413d 6928 8abd
00000250: ecb7 deba c082 873d a277 04bb b08f 5bbc
00000260: c996 a9bc 629a 5dbc 628a 5d3c a85b ceba
00000270: bfce 42bc ec18 6dbc 0049 cfbc 8d3c d1bb
00000280: 7f71 19bc fe45 acb9 9d85 e4bc d804 033a
00000290: b1ab a73b 6ee7 1ebd 8382 72bc 69d1 413c
000002a0: 0281 5a3c e6df 66bc 648c 84bc 0e79 c13c
000002b0: 2ccc 323c 6e1c 033b 85fe 0bbc 2ff6 0a3d
000002c0: d8ec cc3c 3d54 6b3c b350 3fbc 28a9 91bb
000002d0: 96d2 1b3c 77b7 e93c 4899 983c a963 30bd
000002e0: ef1c 45bd e34e 64bd 5786 bbbc fa8c 0a3c
000002f0: 5f55 a0bb b61b 0f3d 1a71 33bc 9385 e0b8
00000300: 203a 1fbd 5078 91bc 2352 fabc 6e6a b1bb
00000310: 5396 62bd c110 37bd e718 93bd 41a6 26bd
00000320: 6dc7 c73c 85da 823c 7c76 d43d 976c 4d3c
00000330: e864 9bbc 9647 a0bc b7e2 573b 09e7 64bc
00000340: 1a84 52bb dd59 a13d f622 cebc 3343 83bc
00000350: 403f 163c 760f 863d ae10 91bc e4dc 03bd
00000360: 3c91 513c 0892 4cbc 9d14 aa3c 3173 cd3c
00000370: a2bc 7a3c 5b2e 3a3d dbde 39bc 72d5 343c
00000380: 09fd 8ebc a2bf 87b9 ba4d 313b 7cb5 8c3a
00000390: 55d1 4f3d e97c bfbb 6333 6cbc c770 86bb
000003a0: 345e 2cbd 0656 25bc 109a 993b 72d7 3d3d
000003b0: a284 6cbc c9f1 7a3c a9e6 bbbc e57b 523b
000003c0: ee57 a1bc 52c6 96bc 7f7e 933c 187d 8bba
000003d0: a68e 5f3a 7070 e93c 59e7 2dbd 1c80 91bc
000003e0: b77a 04bd f08b 86bd e22e 8b3d 9f6a 67bc
000003f0: 4545 53bd 0757 6abb b7ff 79bb 511e 4fbd

bias f4 [134]
-0.037653744 -0.0094417725 0.0064169453 0.020038998 0.024016432 -0.034223482 0.01564095 0.0024658015
0.0075640175 -0.032564607 -0.0058843726 -0.025709424 -0.001560578 -0.021336142 -0.03886855 0.015395191
0.0066414163 -0.04107357 0.030166311 -0.028904082 -0.020970847 -0.00041352227 -0.007495375 -0.015245886
-0.005708716 -0.0030835636 0.023425564 -5.1479412e-05 0.031031834 0.026213193 -0.0044681793 0.005694936
0.03652894 -0.01017854 0.02024274 -0.020762816 0.025569316 -0.027701266 0.016935825 0.0037054396
0.015627185 -0.03819252 -0.027484637 0.021586189 0.019452129 0.018465513 -0.030430757 7.307955e-05
0.003881439 0.041067433 -0.031508755 0.04096435 -0.013500969 0.020565212 0.02972009 0.027195783
-0.016693529 0.0059271115 -0.018404918 0.0004555144 -0.040041026 -0.02870956 0.00026043286 0.012646878
0.009039338 0.04440287 -0.02953874 -0.035330884 0.0032294774 -0.012158079 -0.044465065 0.019368943
-0.02616677 0.024387697 -0.005537647 -0.039347548 0.026621927 0.040428545 0.0010666144 -0.03662234
-0.029362334 -0.025595471 -0.029321523 -0.008686641 -0.011056024 -0.033475585 -0.029996078 0.040167972
-0.0055015306 0.034243885 0.0066724643 0.037268344 -0.03660441 -0.00949227 0.02384075 -0.03672273
-0.03551696 0.042388104 -0.03208131 0.0039043743 0.024284272 0.034451533 0.005716552 -0.032987658
0.031196088 -0.038828567 -0.042093623 -0.026727775 -0.0038899078 0.0009972776 0.0410955 0.011287881
0.03875901 0.042839374 0.0018132475 -0.039773908 0.007829815 -0.013529901 0.019107033 0.03445368
0.013851349 0.0017973251 -0.040401142 0.01696074 0.03350959 -0.009882294 0.009359506 0.030796316
0.025065871 -0.014809048 0.027467653 0.02051176 -0.038773086 -0.0024335654
00000000: d03a 1abd aab1 1abc 3d45 d23b d328 a43c
00000010: 1cbe c43c ec2d 0cbd 7321 803c 4999 213b
00000020: 94db f73b 7762 05bd b2d1 c0bb 929c d2bc
00000030: 4f8c ccba 22c9 aebc a134 1fbd 1c3c 7c3c
00000040: 3da0 d93b c23c 28bd 571f f73c 41c8 ecbc
00000050: 0ecb abbc 05ce d8b9 c39b f5bb e1c9 79bc
00000060: 2e10 bbbb 9d15 4abb f8e6 bf3c 99eb 57b8
00000070: 7936 fe3c 0dbd d63c ce69 92bb 969c ba3b
00000080: 5f9f 153d e4c3 26bc 1ad4 a53c c816 aabc
00000090: be76 d13c c4ed e2bc 00bd 8a3c f6d6 723b
000000a0: 9504 803c c36f 1cbd 7627 e1bc 85d5 b03c
000000b0: 125a 9f3c fd44 973c ec49 f9bc 4942 9938
000000c0: be5f 7e3b 5336 283d 530f 01bd 3cca 273d
000000d0: 2b33 5dbc 6078 a83c 8c77 f33c b1c9 de3c
000000e0: dec0 88bc 3738 c23b e9c5 96bc 1cd2 ee39
000000f0: 0f02 24bd 5030 ebbc b58a 8839 da34 4f3c
00000100: bb19 143c c9df 353d 3afb f1bc 1eb7 10bd
00000110: a4a5 533b ae32 47bc 0021 36bd 9eab 9e3c
00000120: b25b d6bc b5c8 c73c 2675 b5bb e52a 21bd
00000130: 3a16 da3c 6798 253d a4cd 8b3a 4f01 16bd
00000140: 4789 f0bc 98ad d1bc b133 f0bc 6a52 0ebc
00000150: 5324 35bc b21d 09bd 56ba f5bc 2c87 243d
00000160: 2f46 b4bb 5143 0c3d b0a4 da3b b1a6 183d
00000170: 81ee 15bd 7785 1bbc ad4d c33c 936a 16bd
00000180: 3b7a 11bd 269f 2d3d b167 03bd 88e0 7f3b
00000190: cfef c63c 0d1d 0d3d ea51 bb3b 111e 07bd
000001a0: f08e ff3c b40a 1fbd 5d6a 2cbd 35f4 dabc
000001b0: d3ed 7ebb 15b7 823a c153 283d cef0 383c
000001c0: c5c1 1e3d 5778 2f3d 7daa ed3a f7e9 22bd
000001d0: a048 003c 85ac 5dbc 5a86 9c3c 4d1f 0d3d
000001e0: c5f0 623c 3994 eb3a ab7b 25bd 40f1 8a3c
000001f0: 5a41 093d 58e9 21bc 9d58 193c 8e48 fc3c
00000200: f156 cd3c a6a1 72bc d803 e13c 4708 a83c
00000210: 87d0 1ebd 747c 1fbb
