bottleneck.pth (torch, 277949 bytes, 2 tensors)

weight f4 [134, 512, 1, 1]
00000000: 3325 37bc 5b61 60bc a17c c13b 1244 4fbc
00000010: 5c9d 2b3c 3c24 a33a f20f 9f38 0edd a3bb
00000020: 6d7b 023e 586d a4bc 9bd9 a4bb 5b31 09bd
00000030: cef3 0e3b 32db d0bc f1fa 11bd dd9a 0ebc
00000040: 27b7 f4bc 347a 57bd 71a6 803d 21df c2bc
00000050: 829b 793d f5eb ee3c ce15 31bd ad60 7ebc
00000060: bc5c c5bc 4dd9 b23c 6335 19bd 1b39 783d
00000070: 77c5 e13c a1f7 663c 5e9a b53b 7890 1f3d
00000080: 7b3e 03bc 8995 34bd 1dff f8bc 0ab1 2d3c
00000090: 79ab 4e3d 4ce4 47bd b49b 48bd 8606 2abc
000000a0: 37a0 733c f82e c6bc c87a 7f3c 2a40 9b3b
000000b0: 925a 253d 808c 183d d903 46bb 4f2e 81bd
000000c0: 3cf2 a63b 4b6a 16bd 5eb1 963c 88ed 59bc
000000d0: b171 7cbd 71ef 8a3d 4b11 b4ba e401 5ebc
000000e0: c0a0 1bbd d8d8 88bd 7f1e 163c e5b7 cbbc
000000f0: c9a3 0abc 9865 303b 2857 25bc 8057 dbbc
00000100: 1a5c db3b 6a73 fbbb b99e 76bd 90b0 fd3c
00000110: d2c3 6e3a d5d7 dabc 2646 78bb 3707 80bc
00000120: 391a dabc 2d96 28bc 4bf6 0bbb 38f8 11bc
00000130: 8d96 83bc 4870 fabc 5ee3 10bc dbe6 c4bb
00000140: 3f6a 50bc 948a 1cbb a7ed 28bc 1646 5fbc
00000150: 9859 0dbd 74a4 8a3c acf2 613d 44a6 eb3c
00000160: 7206 05bd cdc1 503c af93 6bbc f912 f63c
00000170: c095 8abd 2993 4a3c deb8 dbbc dbc6 f53c
00000180: 0fbe 42bc ef53 9ebd f9af 343d 2aa2 ecb7
00000190: 0d2f 1cbd ab41 91bd 78de d63b 2800 8a3d
000001a0: 8e40 aa3d e405 16bd 1636 973c 7cf2 1ebb
000001b0: 2e62 233a a9ea 1a3d ce11 d63b 9cd3 24bd
000001c0: 3dc4 25bd 97b5 b3bb 38c8 ab3b b04f d63c
000001d0: 2e6d 1a3c b32f 42bd d68a 663a 9d24 00bc
000001e0: 7e59 00bd a0d0 643d 3a4a a2bc 6567 0bbd
000001f0: 0493 5cbb 5b76 dcbc 1a09 cdbc 335d 973c
00000200: 7b1a 7dbd 8b89 59bc 54a2 4e3d 687d d83c
00000210: b3df adbc c1cc c9bc ed94 f03c 79d4 14bb
00000220: c986 aebc 6158 81bc e1ab d5bc 4240 263c
00000230: 07b1 233d 7af6 f23b 4bb5 7ebd 4420 a1bc
00000240: a622 e1bc 49f6 833d 94b6 653d b107 62bd
00000250: 04c1 e2bc af9b a33d 2a89 81bc 9bb7 7cbd
00000260: 155b 98bc 6086 213c fe34 36bb 378f f539
00000270: 5c4e e7bc 1e5c aebc 0ecc edbc b327 bebc
00000280: 29a2 3a3d 950e 623d 637c 203b e7c3 ef3c
00000290: a696 bb3b c24b e1bc 85e2 43bc e1eb 923c
000002a0: d536 cb3c 3e83 503a afbb 38bc a3c4 3a3d
000002b0: 95ae cbbb aa81 d93b f2b2 103c f3dc 393d
000002c0: 5b7e f63c 6de1 59bb 59c7 03bc 6b0e bd3c
000002d0: d7c9 083d 2611 443d fb5d 033c af4e 4cbd
000002e0: 604a f3bc 83d3 33bd 42c3 d3bc 1a60 1a3b
000002f0: 2c1c fdbc c50e 533d df22 253c 9bcf 3e3c
00000300: 9b68 19bc b336 2abd 2aed 19bd b082 a63c
00000310: 4c0f 2dbd 68ff 2bbd 8648 90bd c697 2bbb
00000320: aa9b 0a3d bda2 563c 3801 313e 4e39 333d
00000330: 79c5 13bd 01e6 1ebd 74bd 5bbb 5c3c ffbc
00000340: 3ad8 e93b 3602 873d 3635 74bb 24f5 f83b
00000350: 5e05 173b 2abd 6d3d 4649 cebc a4f2 6cbd
00000360: eae5 963c df03 43bc 1780 433c b62e 403c
00000370: 6fb5 cb3c a9d6 483d 434e eebb 8a10 3f3d
00000380: aa9b c7bb c610 58bc 4f0f 813c 5802 aa3c
00000390: ba9d f93b c8d8 14bd 165c 52bc be1f d2bc
000003a0: f530 12bd 7913 97bc 73ae cbbb daeb 493d
000003b0: baa7 13bd 8f54 2f3d a169 1bbd 43cb 17bb
000003c0: 4d6f fabc 7840 7bbd 0ff3 253d 377c a8ba
000003d0: 6f36 8c3c a80d 393d 9f4c c1bc c4e3 00bd
000003e0: 394e 7cbc d837 bebd e477 913d 6045 a7bc
000003f0: 7c29 0ebd 2f90 943c 02fe 0e3b bad0 e0bb
-0.011178303 -0.013695086 0.0059047495 -0.012650507 0.010474529 0.0012446712 7.584681e-05 -0.005000717
0.12742396 -0.02007167 -0.0050308234 -0.033494335 0.00218128 -0.025495145 -0.035639707 -0.0087039145
-0.02987249 -0.052606776 0.06281746 -0.023788037 0.06093932 0.029165247 -0.043233685 -0.015525979
-0.02409207 0.021832133 -0.03740443 0.060601335 0.027559979 0.014097125 0.0055420836 0.038956136
-0.008010502 -0.04408792 -0.030395085 0.010601291 0.050456498 -0.048801705 -0.048976615 -0.010377532
0.014869741 -0.024192318 0.015593238 0.0047378736 0.040369578 0.037243366 -0.0030214696 -0.06307661
0.0050947946 -0.036722463 0.018395122 -0.013301261 -0.061631862 0.06783951 -0.0013738064 -0.013550255
-0.0379951 -0.06681985 0.009162544 -0.024867961 -0.008461901 0.0026916023 -0.01009158 -0.026775122
0.006694329 -0.0076736705 -0.060209963 0.03096798 0.0009108159 -0.026714245 -0.0037883609 -0.01562844
-0.026623832 -0.010289711 -0.002135652 -0.008909278 -0.016063 -0.030571118 -0.008843271 -0.0060089654
-0.012720644 -0.002388631 -0.010310567 -0.01362755 -0.03450927 0.01692412 0.05516307 0.028765805
-0.03247685 0.012741518 -0.014378472 0.030038344 -0.06766844 0.012364187 -0.02682155 0.030002048
-0.011886134 -0.07730853 0.044113133 -2.8208906e-05 -0.03813081 -0.07092603 0.006557282 0.06738311
0.08313094 -0.03662671 0.018458407 -0.0024253419 0.00062325865 0.037821446 0.006532884 -0.04024087
-0.04047035 -0.0054842937 0.005242374 0.026161045 0.0094254445 -0.04740877 0.0008794492 -0.007821229
-0.031335346 0.055863023 -0.019810785 -0.03403415 -0.0033656964 -0.026911905 -0.025028754 0.018477058
-0.061792832 -0.013277422 0.050447777 0.026426986 -0.021224832 -0.024633767 0.029367888 -0.0022709651
-0.021304505 -0.015789213 -0.026082935 0.010147156 0.03996375 0.007414636 -0.062184613 -0.019668706
-0.027482342 0.064434595 0.056082323 -0.055183116 -0.027679928 0.07988679 -0.015812475 -0.061698537
-0.018598119 0.009858698 -0.0027802582 0.00046836745 -0.028235607 -0.02128416 -0.029027965 -0.02321229
0.045564804 0.055189688 0.0024488203 0.029268218 0.005724746 -0.027501944 -0.011955862 0.017934741
0.02480642 0.0007954127 -0.011275216 0.045597684 -0.00621588 0.0066377716 0.008831726 0.04537673
0.030089548 -0.0033245937 -0.008043134 0.023078164 0.033395614 0.047867917 0.008018012 -0.049879726
-0.02969855 -0.043902885 -0.025849942 0.0023555816 -0.030897222 0.051527757 0.010079115 0.011646177
-0.009363319 -0.04155607 -0.037579693 0.020325989 -0.042250916 -0.04199162 -0.07045083 -0.0026182993
0.03383986 0.013100323 0.17285621 0.043755822 -0.036076996 -0.038793568 -0.003352967 -0.031156711
0.007136372 0.065922186 -0.0037263162 0.0075975824 0.002304397 0.05804173 -0.025181424 -0.057848588
0.018420178 -0.011902778 0.0119323945 0.011729887 0.024866788 0.04903284 -0.007272513 0.046646632
-0.0060915546 -0.013187593 0.01575437 0.02075307 0.0076176794 -0.03633955 -0.012839338 -0.025649901
-0.03569122 -0.018441902 -0.0062158643 0.04929719 -0.03604863 0.04280525 -0.037942532 -0.0023161925
-0.03057065 -0.06134078 0.040515002 -0.0012854402 0.0171158 0.04517904 -0.023596106 -0.031467214
-0.015399509 -0.09287995 0.071029454 -0.020418823 -0.03470753 0.018135158 0.002181888 -0.0068608196

bias f4 [134]
00000000: 2dd1 f93c 9869 9bbc 2323 9fbc 1237 aebc
00000010: 8fd1 103d c77b 763c 7dcc 013c 99cd 123d
00000020: ea17 a33c 7749 1cbd 512a 33bd d8cb 403c
00000030: cf28 31bd 876f adbc d983 1cbd 2295 b83c
00000040: 50a5 173d 2614 ca3b 29a5 11bd 7b85 073c
00000050: c89c de3c 0a5c b0bb 7117 c5bc 6e13 2b3c
00000060: 9025 24bd 86ac ca3c 821b 563c 836f d6bb
00000070: 16bd 883c f87f da3c 36ea e73c 39b7 fa3c
00000080: 015b 7bbc 6e97 29bc cfc8 4ebc ba9a e3bc
00000090: 6415 2a3d 4f1b ff3c 99c6 19bd 34a5 1f3d
000000a0: 1390 bdbc fdd3 d83c baf2 e3bc 51e0 613c
000000b0: fd3c 003c e3b4 f13c 3863 d2bc f601 453b
000000c0: 2249 28bd 60cf ae3b cace 1d3d f0e2 263d
000000d0: 80fd 27bc cff7 b4bc 65b6 aa3a 38d0 0ebd
000000e0: 756f 233d f12a 9d3b f3e6 0b3d e0eb 8abc
000000f0: c5b8 13bd 38e5 c8bc a4cf 35bd 1cea 5b3c
00000100: 1190 fb3c fa8a 5ebc b5ee f23c 65b6 34bd
00000110: 5f38 1a3d 61db abbc ae8b f13c 00f0 a2bb
00000120: 0090 983c 9814 87bc 6599 d73c 2c56 cc3b
00000130: 5442 343c 2349 c7bc be97 6dbb 89d0 1d3d
00000140: e954 15bc 4b09 9ebc 56a3 10bd 6667 cdbc
00000150: d6c2 513c f1fa 003d 5d1f 08bd 1921 15bb
00000160: cde1 d4ba eda5 1e3b 6c29 83bc 0208 fcbc
00000170: b31d d13c be74 0c3d 815a 2bbd 424b 0c3d
00000180: 9799 2ebc f269 a7bc d236 283c 074f b8bc
00000190: 63ea 0c3d dfbe ffbb ae43 c6bc 9de8 ebbb
000001a0: 2a0b 57bc c2e1 d53c d9cf aa3b 9c7e 80bc
000001b0: a302 a9bc f338 833c 8a2e d2bb dfc1 84bc
000001c0: 8e90 32bd 469f 24bd 447d ec3c 9f0c 9bbb
000001d0: fecf b1bc 76c6 8bbc 4368 46bc e110 eebc
000001e0: d08b 153d 56d6 d23c 315b 06bd afe6 f8bc
000001f0: 691e 9ebc 3a72 133b 8daa 86bb 83f1 50bc
00000200: 5891 34bd 0d21 ab3c 954e ddbc aa40 6e3b
00000210: 7fbc 15bc 3af4 2cbd
0.03049525 -0.01897125 -0.019425934 -0.021266494 0.0353561 0.015044159 0.007922289 0.035840604
0.019908864 -0.038156 -0.043741528 0.01176735 -0.04325181 -0.021171344 -0.038211677 0.02253205
0.03702289 0.0061669527 -0.0355579 0.00827157 0.027174369 -0.0053820657 -0.02405903 0.010441644
-0.040074885 0.024740469 0.013068082 -0.006544055 0.016691726 0.026672348 0.028309923 0.030604945
-0.015341521 -0.010351045 -0.012621119 -0.02778374 0.041524306 0.031140951 -0.037542913 0.03897591
-0.023139989 0.026468271 -0.027825702 0.013786391 0.007827041 0.029505199 -0.025682077 0.0030060983
-0.04108537 0.0053347796 0.038527288 0.04074377 -0.01025331 -0.02209082 0.0013024329 -0.03486654
0.039901216 0.004796379 0.034155797 -0.016958177 -0.03606488 -0.024523363 -0.044387475 0.013422515
0.030708345 -0.013582939 0.02965484 -0.044119257 0.037651416 -0.020978631 0.02948555 -0.004972458
0.018623352 -0.016489312 0.026318261 0.0062358584 0.011002142 -0.024326866 -0.0036253775 0.038528953
-0.009114482 -0.01929154 -0.03531202 -0.025073718 0.0128028 0.031489316 -0.033233035 -0.0022755323
-0.001624161 0.0024207786 -0.016010962 -0.030765537 0.025526857 0.03429102 -0.041834358 0.03425146
-0.010656736 -0.02043626 0.010266976 -0.02249862 0.034403216 -0.007804736 -0.024202194 -0.0071993605
-0.01312522 0.026108626 0.0052127657 -0.015685372 -0.02063114 0.016018366 -0.0064142393 -0.016205726
-0.04359489 -0.040190957 0.028868325 -0.004731729 -0.021705624 -0.017062407 -0.012109819 -0.029060783
0.03651029 0.025736969 -0.03280181 -0.030383436 -0.01930161 0.0022498504 -0.0041096867 -0.012752893
-0.044083923 0.020889783 -0.02701501 0.003635446 -0.009139179 -0.0422251
