classifier_head.pth (torch, 10853 bytes, 2 tensors)

weight f4 [15, 134]
00000000: deaf 1b3d 71f9 c4bc 2338 ac3d f002 403c
00000010: 3cde 953d 2087 44bd fc56 943c 3df8 c0bc
00000020: 543f 05bc 189f cc3c 7ef4 82ba 838c 03bd
00000030: b06f 623d ca20 25bd 5ba0 3ebd 2e31 a63c
00000040: 7ad8 97bd 47b7 833c 85ef 173d 4dbc a43d
00000050: 3d38 62bd c31b 28bd a523 79bd 5806 b03d
00000060: e085 663d a8e7 403d 2f1d 5b3d 45ba 87bd
00000070: 02f8 9b3d 437e b43d d755 a7bb 0665 90bd
00000080: 1a8b a03d 5247 66bd d6d4 3d3c eadb 03bd
00000090: 2de1 01bd d0a7 afbc 2e27 e13c 4999 23bc
000000a0: 8e81 a4bc 1e94 4e3b 065b 2d3c 82a8 58bd
000000b0: 6a5b 343d 3983 13bd 6fb3 06bd f8bf 3fbc
000000c0: ccbc 81bc a8f0 203d 8b13 89bd 9257 2dbc
000000d0: a10b 73bb 7902 673d 348e fe3a f1ed 933d
000000e0: 9253 213d 5a76 1f3c 839d 49bb 6e30 533b
000000f0: 41a2 cfbc 132f 763d 33a4 7ebd f6e3 733d
00000100: 79f9 863d f505 a43d cc91 093d 8609 9d3d
00000110: 9229 973d 9d8c 813d bf01 a63d 9e7f 8a3a
00000120: d752 a23c 6de8 473d 0882 4fbd e3fa 65bd
00000130: f3c2 1bbd c970 1abd 89e1 01bc 2855 543d
00000140: 603c 363d cc51 c2bc 9e66 313d ed73 693d
00000150: 4f64 8ebd 39dc 3e3c 7fc4 4dbc c941 893d
00000160: 0cc7 933d 5baf e83c 08a6 0bbd 7779 523d
00000170: 688c ec3b e47c a0bd 09e0 a93d 509c a83d
00000180: ff5e 8d3d 6f60 38bd 028f 69bd 2076 45bd
00000190: 9550 7dbd afd6 193d 22ee 16bd a2e6 19bd
000001a0: 69c1 933c 2293 8c3d 315b 9abd c121 8d3d
000001b0: 52c1 353c fb59 463d 2d97 5cbd 47a2 91bd
000001c0: 5404 7d3d c9de 7f3d a3c0 f4bc 28e2 073d
000001d0: f13c c13c eda7 183d 25f5 93bd c853 15bd
000001e0: 3c25 183d 491e 7b3d ead0 d4bc 9751 063d
000001f0: db1d 97bd 461c 86bd 7be9 993d 7da8 97bd
00000200: 61e9 0e3c d9ab 61bd 5ec7 b6bb e6e0 6dbd
00000210: 3847 ee3b 07e6 24bd 851b 94bd 06ad b3bc
00000220: ea50 f13c 9c8f 813c 965a 603d 951b 673b
00000230: cb34 3b3c 7c7c 91bc 869d 6d3d b235 babc
00000240: 2b8d 12bd 3315 133d 3cf0 c33a 8d62 de3c
00000250: 1264 45bd 3a58 a13d a4c8 5f3d 88df 833d
00000260: c199 273d 0426 e9bc eeea 61bd 1c50 053d
00000270: b678 9a3c 291f 05bd a3b2 a2bc 6893 e7bc
00000280: 4082 103d ffad 843d 4690 863d 47b6 a9bc
00000290: 27d9 38bc 0cef 9f3c b888 633b 9b37 a03d
000002a0: 9973 d3bb ea34 80bd c959 87bd 3f58 adbb
000002b0: 119f 9739 eb75 103d 3911 00bd cdb9 be3b
000002c0: 3ee3 12bd 247b 64bd 1d52 183d 2516 90bc
000002d0: 522e b13d f5e7 923d cb62 92bd 9ca9 14bd
000002e0: a718 f5bc a1da c0bc 77e8 a9bd cbab 24bd
000002f0: 9977 af3d 272e 99bd eddb 15bc 2982 37bd
00000300: 9cab 12bc b688 943d 4789 13bd a011 1a3d
00000310: 27ac 08bd 422c 4fbd 5f8d 10bd 46f1 b23d
00000320: 21c0 913d 9c64 233d 23b3 8abd cd02 6b3d
00000330: d20c 063b c89e 193d 63f1 90bc 7706 1d3d
00000340: e0ef 6dbd 375a 513d be65 123c 68e6 98bd
00000350: d465 183c 52f9 6cbd 121c 8abd 116e 16bc
00000360: c465 0fbd a01c 003d fa19 a9bd 8272 4dbc
00000370: d8c2 07bd e750 213d 51d7 9c3d 9f5a a73d
00000380: 6c27 98bc 50ef ee3c d792 d23c 51f3 aa3c
00000390: 669c 45bd d701 79bd 5995 e53c 1cab 21bd
000003a0: 2fbb a63d 1b78 94bd 17dc 743d ea64 6dbd
000003b0: 7426 373d ee3b 84bc beaf ac3d 999b 06bb
000003c0: be62 733d 865d 083d 0042 75bd fad8 e83c
000003d0: 7c9e a53d 8170 97bd 643c 3d3d d69f 2e3d
000003e0: 5a4f 39bd 4d88 81bd ba72 c53c 84c9 4ebb
000003f0: 427a 943d a5ac 4a3d e046 333c 9df0 1bbd
0.038009517 -0.024044724 0.08409145 0.01171945 0.073177785 -0.047980428 0.018107884 -0.02355587
-0.008132774 0.024978206 -0.0009991077 -0.032116424 0.055282295 -0.040314473 -0.046539646 0.020287123
-0.074143365 0.016078604 0.037093658 0.08043728 -0.055229414 -0.0410421 -0.06082501 0.0859496
0.056280017 0.047095925 0.05349463 -0.06627325 0.07615663 0.08813145 -0.0051066685 -0.07050519
0.078390315 -0.05622036 0.011586389 -0.03219215 -0.031708885 -0.021442324 0.027484503 -0.0099852765
-0.020081308 0.003152139 0.010580784 -0.052895077 0.04403249 -0.036013816 -0.032885965 -0.011703484
-0.015837096 0.039292008 -0.06693181 -0.01057996 -0.0037085789 0.056398842 0.0019421042 0.07223118
0.03938634 0.009732807 -0.003076405 0.0032224911 -0.025345923 0.060103487 -0.06216831 0.059543572
0.06590552 0.08008949 0.03358631 0.07667832 0.07380976 0.06325648 0.08105802 0.0010566597
0.019814892 0.048805643 -0.050661117 -0.056147467 -0.038027715 -0.037705217 -0.007927307 0.051839024
0.04449117 -0.023720644 0.043310754 0.05699532 -0.06952726 0.011649185 -0.012559055 0.06702001
0.072156996 0.028403929 -0.034093887 0.05138537 0.007218886 -0.07836321 0.082946844 0.08232939
0.06902885 -0.04501384 -0.05702115 -0.048208356 -0.061844427 0.037558254 -0.036848195 -0.037573464
0.018036561 0.06864001 -0.07536925 0.06891204 0.011093454 0.048425656 -0.05385511 -0.0711103
0.061771706 0.062468324 -0.029877013 0.033174664 0.02358863 0.03726952 -0.07224492 -0.036456853
0.037144884 0.06130818 -0.025978524 0.032792654 -0.07378741 -0.065483615 0.07515236 -0.074051835
0.008722634 -0.055095527 -0.0055779656 -0.058075808 0.0072716735 -0.040258434 -0.072318114 -0.02193309
0.029457528 0.015815549 0.05477389 0.0035264243 0.011426161 -0.017759554 0.058011554 -0.022730682
-0.03577916 0.03590889 0.0014948915 0.027146602 -0.048191138 0.07878156 0.054634705 0.064391196
0.040918116 -0.02846051 -0.055155687 0.0325471 0.018856388 -0.03250042 -0.019860571 -0.028268531
0.035280466 0.064784996 0.06570487 -0.0207168 -0.011282242 0.019523166 0.0034718942 0.07823106
-0.0064529893 -0.062600926 -0.06608922 -0.005290061 0.00028919478 0.035268705 -0.031266425 0.005820489
-0.035861246 -0.0557815 0.037187684 -0.017588684 0.08651413 0.071731485 -0.071477495 -0.036294565
-0.029918982 -0.02354175 -0.08296292 -0.040202897 0.08567733 -0.07479506 -0.009146673 -0.044801865
-0.008952048 0.07252638 -0.03601959 0.037614465 -0.033367302 -0.050579317 -0.035291072 0.087374255
0.07116724 0.03989087 -0.06772449 0.057375718 0.002045442 0.03750494 -0.017693227 0.038336243
-0.05809009 0.051111426 0.00893539 -0.074658215 0.0093016215 -0.057854958 -0.06743635 -0.009181515
-0.03500916 0.0312773 -0.08256908 -0.012539508 -0.0331448 0.039383795 0.07658256 0.081715815
-0.018573485 0.029166847 0.025704784 0.020867975 -0.048244856 -0.06079277 0.028025316 -0.039469823
0.08141171 -0.07249471 0.059780207 -0.057957567 0.044714406 -0.016141858 0.08431958 -0.002053952
0.05942034 0.033292316 -0.059877396 0.028423775 0.08086869 -0.07394505 0.04620017 0.0426329
-0.04524169 -0.063248254 0.024102557 -0.0031553218 0.07249881 0.049481053 0.010942191 -0.038071264

bias f4 [15]
00000000: 69e6 393d 62e8 35bb b4f8 94bd 3ed1 3c3d
00000010: 8499 80bd 2a0e 92bb 22d1 a0bd 8ba1 44bd
00000020: 5b54 2dbd 9cf2 00bd 2938 a13d cd35 95bc
00000030: f647 9ebd 7180 62bd 834c febc
0.045385752 -0.002775692 -0.07273999 0.046097986 -0.06279281 -0.004457255 -0.07852389 -0.048005622
-0.042316776 -0.03148137 0.0787204 -0.01821413 -0.07728569 -0.055298273 -0.031042343
